PreRoutGNN/checkpoint/TimingGCN_15799.pt (torch, 946727 bytes, 120 tensors)

nc1.MLP_msg_i2o.layers.0.weight f4 [64, 22]
0	0xbfab6041	-1.3388749
1	0x3d3d0c45	0.04615428
2	0x3e0746b2	0.13210562
3	0x3e499f39	0.19689645
4	0x3da8880a	0.082290724
5	0xbdbda9e1	-0.092609175
6	0x3eafad7f	0.34312055
7	0x3ecc15eb	0.39860472
8	0x3ebca11a	0.3684166
9	0x3e77d887	0.24203692
10	0xbfb4054d	-1.4064118
11	0x3c1cdd9a	0.009574318
12	0xbdb12d1e	-0.086511835
13	0x3de07372	0.109595194
14	0xbe242a14	-0.16031677
15	0xbd128d9a	-0.035779573
16	0x3e272a4d	0.1632473
17	0xbe40605a	-0.18786755
18	0xbe125ccd	-0.14293213
19	0xbdb3a5ed	-0.08771882
20	0x3d3875c9	0.045034204
21	0x3e131dee	0.14366886
22	0xbfc10ba7	-1.5081681
23	0x3da85365	0.08219031
24	0xbe07ec11	-0.13273646
25	0x3c0fd565	0.008778905
26	0x3d4b2ffc	0.04960631
27	0xbd23beae	-0.03997677
28	0xbc2dde8e	-0.010612143
29	0x3dc05af4	0.09392348
30	0xbd91b080	-0.07113743
31	0x3e793770	0.24337554
32	0xbf9fb5b9	-1.2477332
33	0xbeb21cb5	-0.34787527
34	0x3db734fe	0.08945654
35	0x3b99f7a5	0.004698711
36	0x3e1862e8	0.1488148
37	0xbe6461c8	-0.22302926
38	0xbcffca86	-0.0312245
39	0xbd7ba462	-0.061436065
40	0x3e051882	0.1299763
41	0x3ae7ecfd	0.0017694529
42	0xbd9a922d	-0.07547412
43	0xbace0b35	-0.0015719893
44	0xbfb94cc2	-1.447655
45	0x3d2b86e6	0.041876696
46	0x3d88f9b8	0.06688255
47	0x3d7677e8	0.060172945
48	0x3d9490c1	0.07254172
49	0x3e13c2bd	0.14429756
50	0x3f1d9e48	0.61569643
51	0x3f386ef8	0.72044325
52	0x3f0090e7	0.50221103
53	0x3f24126d	0.64090616
54	0xbf9412b1	-1.1568204
55	0x3d97d636	0.07413904
56	0xbd239e24	-0.039945737
57	0xbcbff6e9	-0.023433166
58	0x3daf1844	0.0854955
59	0xbd9aae6e	-0.07552801
60	0x3d8ba179	0.06817908
61	0xbd8edccc	-0.069757074
62	0xbd93795b	-0.07200881
63	0xbe4b6455	-0.19862492
64	0x3df52ca9	0.11971409
65	0xbe14a55f	-0.14516209
66	0x3f3d4ed3	0.739484
67	0x3dcd7250	0.10031569
68	0xbd48b146	-0.048997186
69	0xbe402f3b	-0.18768017
70	0xbdc34924	-0.09535435
71	0x3e422d03	0.18962483
72	0xbdad4204	-0.08459857
73	0xbdb898df	-0.09013533
74	0x3dc8ca5e	0.098042235
75	0xbde72959	-0.11287183
76	0x3f764c73	0.962104
77	0x3ea60c63	0.32431325
78	0xbdf845fc	-0.121227235
79	0x3e1e3cca	0.15452877
80	0xbe09f1f1	-0.134712
81	0xbe0f169c	-0.13973469
82	0xbe2ace80	-0.16680336
83	0xbdc1634c	-0.094427675
84	0x3d310518	0.04321775
85	0x3d309183	0.04310752
86	0xbe847905	-0.2587358
87	0x3d363a94	0.04448946
88	0x3fe23541	1.7672502
89	0xbe1c3e6d	-0.15258189
90	0x3dee7cf8	0.1164493
91	0x3b58c84c	0.003307837
92	0xbe69fb82	-0.22849849
93	0xbc41db22	-0.0118320305
94	0x3e192c46	0.14958295
95	0x3ed985d8	0.42484927
96	0x3ecdcaf9	0.40193918
97	0x3eee5c74	0.4655491
98	0x402189e4	2.5240412
99	0x3dcc6c4c	0.099815935
100	0x3d62262f	0.055212196
101	0xbd076208	-0.033052474
102	0xbe652e40	-0.22380924
103	0x3e1fba61	0.15598442
104	0x3dae0325	0.084966935
105	0x3dfceaa5	0.123494424
106	0xbce558eb	-0.027996501
107	0x3d10fb80	0.0353961
108	0x3e59f073	0.2128313
109	0x3e1421d2	0.14466026
110	0xbf522287	-0.82083935
111	0x39c7655e	0.00038031762
112	0x3de9d227	0.114170365
113	0xbe3b117d	-0.1826839
114	0xbe6aef2d	-0.22942801
115	0x3db717d0	0.08940089
116	0xbe5092ae	-0.20368454
117	0xbe605d59	-0.2191061
118	0xbd3ceab1	-0.046122257
119	0xbe84b4bb	-0.25919136
120	0xbdd9e865	-0.10640029
121	0x3dc6e784	0.09712127
122	0xbda505c8	-0.08057743
123	0xbd9baf3f	-0.07601785
124	0xbe12f612	-0.14351681
125	0x3e369f48	0.17834198
126	0x3ca660de	0.020309862
127	0xbd2cba2d	-0.04216974
128	0xbd7b307b	-0.06132553
129	0xbde31dc1	-0.110896595
130	0xbd968397	-0.073493175
131	0xbe32cd53	-0.17461137
132	0x3fb38c4b	1.4027189
133	0xbe249d8a	-0.16075721
134	0xbdbcba61	-0.092152365
135	0xbd347226	-0.044054173
136	0x3d389da2	0.045072205
137	0x3e1d3971	0.15353943
138	0xbe6ee887	-0.2333089
139	0xbe84449b	-0.25833592
140	0xbe79c489	-0.24391378
141	0xbe5b45b3	-0.21413307
142	0x3f833017	1.0249051
143	0x3e72ebcf	0.23722766
144	0xbd7c830a	-0.061648406
145	0xbdfe837f	-0.12427425
146	0xbd1bc0e0	-0.038025737
147	0x3d1d5681	0.038412575
148	0x3df31685	0.1186953
149	0xbe34d4e9	-0.17659344
150	0x3dd9ddcd	0.10638008
151	0xbe262f9b	-0.16229098
152	0xbe52f581	-0.20601465
153	0xbe5db441	-0.21650793
154	0x3eaddc05	0.33956924
155	0xbd1e0c1d	-0.03858577
156	0x3dd19a50	0.10234511
157	0x3da4052f	0.08008801
158	0x3dad49ab	0.08461317
159	0x3d9317d9	0.07182283
160	0x3d5dfd53	0.054196667
161	0xbe3da7cd	-0.18521042
162	0x3cd7c105	0.026337156
163	0xbea05e7e	-0.31322092
164	0x3e14fa18	0.14548528
165	0xbdd56bbd	-0.1042094
166	0xbc2b28fb	-0.010446782
167	0xbe7de137	-0.24792944
168	0xbc133d28	-0.008986749
169	0xbded28c2	-0.115800396
170	0x3daa0202	0.08301164
171	0xbd22a69b	-0.03970967
172	0x3dc0f8e3	0.094224714
173	0xbce05107	-0.027382387
174	0xbe127c46	-0.14305219
175	0x3cc391b5	0.02387319
176	0x3fd1d3b1	1.6392728
177	0xbe3fe4f5	-0.18739684
178	0x3ddc2230	0.10748708
179	0x3db2488a	0.08705242
180	0xbd0b262e	-0.033971958
181	0xbde4329e	-0.11142467
182	0x3ee24e75	0.44200483
183	0x3f3dbf0c	0.7411964
184	0x3f3f4f96	0.74730814
185	0x3f4b7f9b	0.79491585
186	0xbeb69711	-0.3566213
187	0x3ed4b547	0.41544554
188	0x3e3f1edd	0.18664117
189	0xbe84abbb	-0.2591227
190	0xbd9296cd	-0.07157669
191	0xbd13050f	-0.035893496
192	0x3c560785	0.013063316
193	0xbdb039bd	-0.08604763
194	0x3db8fb03	0.09032252
195	0x3d119c48	0.035549432
196	0x3e8f5aee	0.2799906
197	0xbea56ceb	-0.3230966
198	0x3fd8ba53	1.6931862
199	0x3e34a59a	0.17641297
200	0x3bd868b6	0.0066042794
201	0xbdac3e2a	-0.08410294
202	0xbe737bae	-0.23777649
203	0x3d4d39f5	0.0501041
204	0xbb179f8c	-0.0023135869
205	0x3bd20f9c	0.006410552
206	0x3ea039f6	0.3129422
207	0x3eac311d	0.3363122
208	0x3fefca77	1.8733662
209	0x3ef5fe72	0.4804569
210	0xbe1b672a	-0.15176073
211	0xbd29d231	-0.04146022
212	0x3d871030	0.065948844
213	0xbe2bad5a	-0.16765347
214	0x3de6112e	0.112337455
215	0x3e514de6	0.20439872
216	0xbdd204b1	-0.10254801
217	0xbbe08ce2	-0.006852732
218	0xbe87904f	-0.26477286
219	0xbdd1b7ca	-0.10240133
220	0xbfcda6c4	-1.6066518
221	0x3e076dd9	0.13225497
222	0xbb96959b	-0.004595471
223	0xbe0eaf5a	-0.13934079
224	0x3da37ac3	0.07982399
225	0xbe260769	-0.16213764
226	0x3e7e7c78	0.24852169
227	0xbd011e25	-0.03152289
228	0x3e5acb58	0.21366632
229	0x3e6efb0f	0.23337959
230	0xbffc1cb0	-1.9696255
231	0xbe779731	-0.24178769
232	0x3dead8b7	0.11467116
233	0x3e542d97	0.20720516
234	0xbc2734df	-0.010205477
235	0x3e610929	0.2197615
236	0xbdae0b57	-0.08498257
237	0xbdb7f82c	-0.08982882
238	0x3e48bad3	0.19602518
239	0x3d25a325	0.04043879
240	0x3e35460d	0.17702504
241	0xbdf8b2fa	-0.12143512
242	0x3f6b48ff	0.9190826
243	0xbe2d0826	-0.1689764
244	0xbded1a49	-0.11577279
245	0xbd14b8ba	-0.03630898
246	0xbce3962d	-0.02778157
247	0x3d5a4b40	0.05329442
248	0xbeb2605d	-0.34839144
249	0xbec1fd28	-0.37888455
250	0xbeb52a18	-0.35383677
251	0xbec8e27b	-0.3923529
252	0x3ff99ce1	1.9501001
253	0x3e140826	0.14456233
254	0xbd1f6ad3	-0.038920235
255	0x3e11af02	0.14226916

nc1.MLP_msg_i2o.layers.0.bias f4 [64]
0	0x3de22f55	0.11044184
1	0xbeb7a632	-0.35868984
2	0x3e35ae8d	0.17742367
3	0x3e7440e2	0.23852876
4	0x3d6a9af3	0.057276677
5	0xbdc12ff6	-0.09432976
6	0x3e9326ca	0.2874053
7	0xbe98d71e	-0.2985162
8	0x3ebbebd6	0.36703366
9	0x3ebc01a6	0.36720008
10	0xbe3d834f	-0.18507122
11	0x3d413b7b	0.047175866
12	0xbcabb6ad	-0.02096113
13	0x3e2d8dcd	0.16948624
14	0x3eb15fbb	0.3464335
15	0xbe5edd76	-0.21764168
16	0xb9b538c8	-0.00034565316
17	0x3e4aa452	0.19789246
18	0xbe570277	-0.20997034
19	0xbf043e49	-0.5165754
20	0xbf0139ab	-0.5047862
21	0xbf00ff41	-0.50389487
22	0x3e537d57	0.20653282
23	0xbe2d6fe0	-0.16937208
24	0x3e702595	0.23451836
25	0x3f0a030e	0.5391091
26	0xbe8f07fd	-0.27935782
27	0x3db116d2	0.08646931
28	0xbeee6e42	-0.46568495
29	0x3d69b537	0.057057586
30	0xbdaaed1b	-0.083460055
31	0xbb8f56e5	-0.0043743723
32	0x3f0efce7	0.5585465
33	0x3d6f9668	0.058493048
34	0xbf05570f	-0.52085966
35	0xbed1711f	-0.40906617
36	0xbf128522	-0.57234395
37	0xbea6c2df	-0.3257055
38	0x3d61799a	0.05504761
39	0xbc46d7bd	-0.012136397
40	0x3db51b75	0.08843128
41	0xbd871e39	-0.065975614
42	0x3e885f9f	0.26635453
43	0xbec631ca	-0.3870986
44	0xbe431bdf	-0.190536
45	0x3d590930	0.052987278
46	0xbcfbf769	-0.030757623
47	0xbe8fba8e	-0.28072017
48	0xbe58d613	-0.21175413
49	0xbec60d95	-0.38682237
50	0x3e946ced	0.28989354
51	0xbc8c83af	-0.017152635
52	0x3ebd934e	0.37026447
53	0x3dfdc3d4	0.12390867
54	0xbce95529	-0.02848299
55	0xbe883b6c	-0.26607835
56	0xbf1647f6	-0.58703554
57	0xbe85491e	-0.26032346
58	0xbd2b0922	-0.041756757
59	0x3d14a300	0.03628826
60	0x3f370298	0.7148833
61	0x3e7b0c25	0.24516352
62	0xbd11c6d9	-0.035590027
63	0x3d5d12d7	0.053973045

nc1.MLP_msg_i2o.layers.2.weight f4 [64, 64]
0	0xbdfff007	-0.124969535
1	0xbc89aabf	-0.01680505
2	0x3d4071c7	0.046983507
3	0xbde83a06	-0.11339192
4	0xbcdfa1f9	-0.027298914
5	0x3de841b6	0.11340658
6	0xbd76d1fe	-0.060258858
7	0xbd8b707f	-0.06808566
8	0x3d183eeb	0.03716938
9	0xbcce757e	-0.025202509
10	0x3d9d0035	0.07666055
11	0xbd860a0a	-0.065448835
12	0x3d8ffef9	0.07031054
13	0xbd38de88	-0.045134097
14	0xbde9a6b7	-0.114087515
15	0xbd5a4173	-0.053285073
16	0xbdf25bce	-0.118339166
17	0xbddc6082	-0.10760595
18	0x3c34361f	0.010999232
19	0x3bd0aad2	0.0063680196
20	0xbbf05895	-0.0073347786
21	0x3dc1a267	0.09454804
22	0xbd97e32f	-0.07416379
23	0x3e003a96	0.12522349
24	0xbd8c50d4	-0.06851354
25	0xbe115859	-0.14193858
26	0x3e1c157e	0.15242574
27	0x3dc3b263	0.09555509
28	0xbe8d8285	-0.2763864
29	0xbb504748	-0.0031780768
30	0xbc233c5e	-0.009963123
31	0x3db16a25	0.086628236
32	0xbb093775	-0.0020937596
33	0x3cf05c4d	0.029340887
34	0x3d939f19	0.0720808
35	0x3d71967b	0.0589814
36	0xbd8d83b3	-0.06909885
37	0x3bfdc35c	0.007744236
38	0xbe28f393	-0.16499166
39	0xbe109957	-0.14120995
40	0x3d99fb7d	0.07518671
41	0xbc89dcdc	-0.016828947
42	0x3c37c51e	0.01121643
43	0xbe0c04ae	-0.1367366
44	0x3da14936	0.07875292
45	0x3bc69007	0.00605965
46	0xbd2a2608	-0.041540176
47	0xbd2c4953	-0.042062115
48	0xbca556e6	-0.020183038
49	0xbe2245c5	-0.15846927
50	0x3d8a9ba9	0.06767971
51	0xbc2ba3e4	-0.010476086
52	0xbda033a8	-0.07822353
53	0xbcff3012	-0.031150851
54	0x3dc5956a	0.09647639
55	0xbc45a417	-0.012063048
56	0xbdc7d031	-0.09756506
57	0x3d96255c	0.073313445
58	0xbde4a0bf	-0.111634724
59	0x3df2997a	0.118456796
60	0xbd1480c4	-0.036255613
61	0xbc9fe219	-0.019516991
62	0xbdea40a2	-0.11438109
63	0x3bd0ca4b	0.0063717715
64	0xbd8a8631	-0.06763876
65	0xbc3d429f	-0.011551528
66	0xbdf53da3	-0.11974647
67	0xbd9b8a7d	-0.07594774
68	0xbd55b7cd	-0.05217724
69	0x3d5ab07e	0.053390972
70	0x3e05a436	0.13050923
71	0x3d48fee2	0.0490712
72	0x3e00d4ef	0.12581228
73	0x3e11173b	0.14169018
74	0xbdc62948	-0.096758425
75	0xbac97820	-0.0015370883
76	0xbd9b7d1e	-0.075922236
77	0xbe4882af	-0.19581102
78	0x3de151a1	0.110018976
79	0xbd720ac3	-0.059092294
80	0x3e223107	0.15839015
81	0x3e157f4c	0.14599341
82	0x3e50eeaa	0.20403543
83	0xbda40978	-0.080096185
84	0x3dfc1f5d	0.123106696
85	0x3d3616a2	0.044455178
86	0xbcfc496a	-0.030796725
87	0xbdfa9d1a	-0.12236996
88	0x3e3c9bc7	0.184188
89	0x3e4e960e	0.20174429
90	0xbd4d6f41	-0.050154928
91	0xbdb36d47	-0.087610774
92	0xbe063801	-0.13107301
93	0x3d001111	0.031266276
94	0x3e08619b	0.13318484
95	0x3a3f2535	0.0007291616
96	0x3e183612	0.14864376
97	0x3da02512	0.078195706
98	0x3d4f0e74	0.050550893
99	0xbd9b26f1	-0.07575787
100	0xbd17515b	-0.03694282
101	0xbab30aaa	-0.0013659794
102	0x3d00a530	0.031407535
103	0x3d6a9d1a	0.05727873
104	0x3cef798d	0.029232765
105	0x3e06fdc5	0.13182743
106	0x3d7c628b	0.061617415
107	0x3d93e1e4	0.072208196
108	0xbd3fbe29	-0.04681221
109	0xbe550d01	-0.20805742
110	0x3dd643bc	0.10462138
111	0xbde73806	-0.112899825
112	0xbe0a8501	-0.135273
113	0xbd06e3d1	-0.032932106
114	0x3e15ddef	0.14635442
115	0xbcbb47b8	-0.022861347
116	0x3ce7fc9d	0.028318698
117	0x3d5d5902	0.054039963
118	0xbcb56ba2	-0.02214605
119	0xbc4d1986	-0.012518292
120	0x3d841d82	0.06450941
121	0xbd554cfe	-0.05207538
122	0xbd252a55	-0.040323574
123	0xbdb5b2a8	-0.088719666
124	0x3e12a99f	0.14322518
125	0xbd1d7c3a	-0.03844855
126	0x3d892b32	0.06697692
127	0xbe1c9eb6	-0.15294918
128	0x3dd1573a	0.10221715
129	0xbdec779f	-0.115462534
130	0xbd195d9d	-0.037442792
131	0x3d8a8b37	0.067648344
132	0xbe351029	-0.17681946
133	0x3da8ee5d	0.08248589
134	0x3e0b2076	0.13586602
135	0xbd414cf0	-0.047192514
136	0xbd2d03fc	-0.042240128
137	0x3ccde765	0.025134752
138	0xbd8def62	-0.06930424
139	0xbd930c1d	-0.07180045
140	0x3e0b67a1	0.1361375
141	0x3e226e7f	0.15862463
142	0xbc2265c0	-0.009911954
143	0x3dfc2f40	0.123137
144	0xbc13b1e3	-0.0090145795
145	0xbe258f07	-0.16167842
146	0x3d8d67f5	0.06904594
147	0x3db5501a	0.08853169
148	0xbdfedc84	-0.12444404
149	0x3dcc7354	0.099829346
150	0xbcfb29a0	-0.030659497
151	0xbe02b955	-0.12766011
152	0x3a18825c	0.0005817765
153	0x3c11ad12	0.008891361
154	0xbe0c7952	-0.13718155
155	0x3dca3ab3	0.09874477
156	0x3dc9ab34	0.098471075
157	0xbdb32cbf	-0.08748769
158	0xbbc3e16a	-0.005977799
159	0xbe18abd9	-0.14909305
160	0x3afadb5f	0.0019138864
161	0xbcf2d8ff	-0.029644487
162	0x3d33610e	0.04379373
163	0x3c2cb2b5	0.010540654
164	0x3dc8c0f9	0.098024316
165	0x3dcc8ec6	0.09988169
166	0x3cf4605c	0.029831104
167	0xbe1d7827	-0.15377866
168	0xbd8718a4	-0.06596497
169	0x3d56c8d0	0.052437603
170	0x3da7faca	0.08202131
171	0xbe032c85	-0.12809952
172	0x3df15c1b	0.11785146
173	0x3df7c2f7	0.120977335
174	0x3d80142b	0.06253847
175	0x3cb582c0	0.022157073
176	0x3d361865	0.04445686
177	0x3d786e58	0.060652107
178	0x3c976e39	0.018485175
179	0xbdb06634	-0.08613244
180	0xbd7b1a0f	-0.06130415
181	0x3da37b93	0.07982554
182	0xbd57863e	-0.052618258
183	0xbd631f10	-0.055449545
184	0x3da0c7d5	0.07850615
185	0x3c547296	0.012966773
186	0xbda62885	-0.08113197
187	0x3d8264cf	0.06366884
188	0xbe41f6dc	-0.18941826
189	0xbde513b4	-0.11185399
190	0x3dd42b81	0.1035986
191	0x3d7a66c6	0.06113317
192	0xbda8d86e	-0.08244406
193	0x3cb0cd6a	0.021582324
194	0x3b296205	0.0025845778
195	0xbdb1da04	-0.08684161
196	0x3c72dff5	0.014823903
197	0xbdccd5d6	-0.100017235
198	0x3dcf58c7	0.10124355
199	0x3dcc8c50	0.099877
200	0x3cdf8834	0.027286626
201	0x3db673e6	0.089088246
202	0x3dea3638	0.11436123
203	0x3dd1803f	0.10229539
204	0x3dae7914	0.085191876
205	0x3e1619a4	0.14658219
206	0xbcf9da7f	-0.030499695
207	0x3d25858b	0.04041056
208	0x3d812f57	0.063078575
209	0x3e1236af	0.14278673
210	0x3d50aa15	0.050943453
211	0xbd8746b2	-0.06605281
212	0xbcb41e95	-0.021987239
213	0xbdce7468	-0.100807965
214	0x3c878298	0.016541764
215	0x3d9476b1	0.07249201
216	0xbbf5f1ea	-0.007505645
217	0x3dc8785f	0.09788584
218	0xbd7bdde4	-0.06149091
219	0x3cb72d8e	0.02236059
220	0x3cb4f523	0.022089547
221	0x3d8c4842	0.068497196
222	0x3b1bff0a	0.0023803138
223	0xbd289652	-0.04115898
224	0x3cc3b21b	0.023888638
225	0x3e0ad63f	0.13558291
226	0x3dd2f6d2	0.103009835
227	0x3da7a581	0.08185864
228	0xbcb5fa5d	-0.02221411
229	0xbde79150	-0.11307013
230	0x3d79e781	0.061011795
231	0xbdd16532	-0.102243796
232	0xbbebdf38	-0.0071982406
233	0x3db5acd8	0.08870858
234	0xbdc6fc2d	-0.097160675
235	0xbd8db256	-0.069187805
236	0xbe1bc3ea	-0.15211454
237	0x3e39bb67	0.18137895
238	0x3d19f3ff	0.03758621
239	0xbd60e3fc	-0.054904923
240	0x3e061a88	0.13096058
241	0xbdbb2c45	-0.09139303
242	0x3d9ad268	0.07559663
243	0xbc4b97f3	-0.012426364
244	0x3d96592e	0.073412284
245	0x3b97a876	0.0046282364
246	0xbc5279d7	-0.012846432
247	0xbd23a5fb	-0.039953213
248	0x3c49388e	0.01228155
249	0x3dca9890	0.0989238
250	0xbd7142ae	-0.05890148
251	0x3de98863	0.11402967
252	0x3b5fc01c	0.0034141606
253	0x3d97fc45	0.074211635
254	0xbd4fda71	-0.05074543
255	0xbe10db2b	-0.14146106

nc1.MLP_msg_i2o.layers.2.bias f4 [64]
0	0xbe4d00bb	-0.2001981
1	0x3ea431f3	0.32069358
2	0xbf0be8ae	-0.54651916
3	0xbe20604a	-0.15661731
4	0xbdbf46dd	-0.09339688
5	0x3e096e2c	0.13420933
6	0xbeaa6a69	-0.3328431
7	0xbed0bd50	-0.40769434
8	0xbe5a767b	-0.21334259
9	0xbe384728	-0.17995894
10	0x3e9dfea8	0.3085835
11	0x3e8b46ad	0.2720236
12	0xbe5a7191	-0.21332385
13	0x3d2f9097	0.0428625
14	0xbf0e105f	-0.5549373
15	0xbeed475b	-0.46343502
16	0x3dfe3edd	0.12414334
17	0xbed273fe	-0.4110412
18	0x3bacfe6d	0.0052793534
19	0x3dac67f4	0.08418265
20	0x3ebc2dfb	0.3675383
21	0xbf156b57	-0.5836691
22	0xbe10222c	-0.14075536
23	0xbd2aa9ac	-0.041665718
24	0xbe8861b3	-0.2663704
25	0xbe7b4475	-0.24537833
26	0x3dab22c6	0.08356242
27	0x3cb527d5	0.02211372
28	0xbe265c65	-0.16246183
29	0x3e002187	0.1251279
30	0x3d52c033	0.051452827
31	0xbdc8678f	-0.09785377
32	0xbda0fcc6	-0.07860713
33	0xbe7a8310	-0.24464059
34	0xbcdb277a	-0.026752222
35	0x3e477a3a	0.1948022
36	0x3ea94370	0.33059263
37	0x3e5af7ae	0.21383545
38	0x3f5b3418	0.85626364
39	0x3e6358d3	0.22201853
40	0xbdac42dc	-0.0841119
41	0xbe621554	-0.22078449
42	0xbebd24d2	-0.36942154
43	0x3e866c35	0.2625443
44	0xbe266211	-0.16248347
45	0xbe919dc3	-0.28440675
46	0x3d85a091	0.06524766
47	0x3edb01d4	0.42774832
48	0xbea543de	-0.3227834
49	0x3eb6fc26	0.3573925
50	0x3e329843	0.17440896
51	0xbea9cc61	-0.3316374
52	0xbbd7a999	-0.006581497
53	0x3ec11651	0.3771234
54	0x3ef412e8	0.47670674
55	0xbeca7f50	-0.39550257
56	0x3e459841	0.19296362
57	0xbdad56e7	-0.08463841
58	0xbe51daa5	-0.20493563
59	0x3e010a2f	0.12601541
60	0x3e27d499	0.16389693
61	0xbedf8a87	-0.43660375
62	0x3e36a918	0.17837942
63	0xbede8388	-0.43459725

nc1.MLP_msg_i2o.layers.4.weight f4 [64, 64]
0	0x3e477832	0.19479445
1	0x3d09ee1a	0.033674337
2	0x3da2ded4	0.07952657
3	0x3c174823	0.009233507
4	0x3dd9f0ff	0.106416695
5	0x3e0c4139	0.13696755
6	0xbdeb45a5	-0.11487893
7	0x3db24148	0.08703858
8	0x3dee40b6	0.116334364
9	0xbda660bc	-0.08123919
10	0xbdcfd636	-0.10148279
11	0xbda4e889	-0.08052165
12	0x3d89e4a3	0.06733062
13	0xbd6dc683	-0.058050644
14	0x3e412263	0.18860774
15	0x3da4c96a	0.08046229
16	0x3d749891	0.05971581
17	0xbcf8827b	-0.030335655
18	0xbd4f84d9	-0.050663803
19	0xbd0983ec	-0.033573076
20	0xbd92ebda	-0.07173891
21	0x3d4ced70	0.050031126
22	0xbd3e4681	-0.046453957
23	0x3c8db67c	0.01729893
24	0xbd2e64b5	-0.04257651
25	0x3de5de84	0.11224082
26	0xbdea7f60	-0.11450076
27	0xbe229187	-0.15875827
28	0x3de77eb3	0.11303463
29	0xbd0f37bb	-0.034965258
30	0xbd8afd08	-0.06786543
31	0x3dc8134e	0.09769307
32	0xbda68934	-0.08131638
33	0x3c4ec545	0.012620275
34	0xbd0121da	-0.031526424
35	0x3c2a6f91	0.010402576
36	0x3e4ab333	0.19794922
37	0x3de5a5db	0.11213275
38	0x3ce7b0c7	0.028282536
39	0xbe110559	-0.14162196
40	0x3db73f03	0.089475654
41	0x3d43024e	0.04760962
42	0x3daf1ba4	0.08550194
43	0x3c60563c	0.013692435
44	0xbd48030e	-0.04883104
45	0x3c0e55b4	0.008687425
46	0x3e00ac9f	0.1256585
47	0xbd502ef3	-0.050826024
48	0xbd027a89	-0.03185514
49	0xbd1f7023	-0.0389253
50	0xbca674c9	-0.02031936
51	0x3c83763d	0.016047591
52	0xbe0ed238	-0.1394738
53	0x3e197cf7	0.14989077
54	0xbdfed1c8	-0.12442356
55	0x3df7424e	0.120731935
56	0xbd4697f8	-0.048484772
57	0x3b900293	0.004394838
58	0x3d28a919	0.04117689
59	0xbc394b85	-0.011309509
60	0xbda35f49	-0.079771586
61	0xbb9a5ea3	-0.0047109886
62	0xbde7d3e5	-0.113197125
63	0x3da39d5b	0.079889975
64	0x3d41377e	0.047172062
65	0x3d8b429c	0.06799814
66	0x3d7dd96b	0.061974924
67	0xbcd92c29	-0.026510315
68	0xbd942272	-0.072331324
69	0x3d93efe9	0.072234936
70	0xbd2dd643	-0.042440664
71	0xbc653e27	-0.013991869
72	0x3da18b52	0.07887901
73	0x3e00b13b	0.12567608
74	0x3da52c32	0.0806507
75	0x3c8025b3	0.015642976
76	0x3d85acda	0.065271094
77	0x3dac5397	0.08414381
78	0x3cbc58b6	0.02299152
79	0xbdb3c8c7	-0.087785296
80	0x3d5abcf1	0.053402845
81	0x3dadc86a	0.084854916
82	0x39cd5e34	0.00039170834
83	0x3dff62cf	0.12470018
84	0x3e0cb498	0.13740766
85	0xbd4030bc	-0.046921477
86	0x3d9dbd8b	0.07702168
87	0x3df9e9af	0.12202775
88	0x3d4e22ba	0.050326087
89	0x3deb9e79	0.11504836
90	0x3dc5bd18	0.096552074
91	0xbdf81a14	-0.12114349
92	0xbcb15cba	-0.02165066
93	0xbdedf850	-0.116196275
94	0xbd268fc9	-0.040664468
95	0x3d7bf4e1	0.06151283
96	0x3c683969	0.014173844
97	0x3c8b2740	0.01698649
98	0xbda63068	-0.081147015
99	0x3d4303d5	0.047611076
100	0x3e1e933b	0.15485851
101	0xbe115907	-0.14194117
102	0xbccff691	-0.025386127
103	0xbdf4f5cf	-0.11960947
104	0x3d737de3	0.059446227
105	0xbb68e8e1	-0.0035539197
106	0x3d8b17e9	0.0679167
107	0xbe09a5fd	-0.13442226
108	0x3ca9a0b0	0.020706505
109	0xbddb3958	-0.10704297
110	0x3c787951	0.015165643
111	0xbcdd7438	-0.027032956
112	0xbd25e00e	-0.04049688
113	0x3cd4614a	0.025925297
114	0x3db085d8	0.08619279
115	0xbd85d624	-0.06534985
116	0x3d999fdb	0.07501193
117	0x3dccfbf6	0.10008995
118	0xbd2d9396	-0.042377077
119	0x3dd91188	0.10599047
120	0xbd991ef0	-0.07476604
121	0xbd54c5c4	-0.051946416
122	0xbd158875	-0.03650709
123	0x3e1061fa	0.14099875
124	0xbc583d17	-0.013198159
125	0x3c564992	0.013079064
126	0xbe19bc38	-0.15013206
127	0x3e0ad3c8	0.1355735
128	0xbd25a297	-0.04043826
129	0xbd90b1e6	-0.070651814
130	0xbda909c2	-0.08253814
131	0x3d3a8019	0.04553232
132	0x3df4bb1c	0.11949751
133	0x3deb72b3	0.114964865
134	0xbb7c8aaa	-0.0038534799
135	0xbd626abe	-0.05527758
136	0x3dc3ee5d	0.095669486
137	0x3d9d040e	0.07666789
138	0x3dc54b21	0.0963347
139	0x3d664e3e	0.05622696
140	0x3c2977ba	0.010343486
141	0xbdbfdf08	-0.09368712
142	0xbcf02b75	-0.029317597
143	0xbe41b9ff	-0.18918608
144	0x3cf9d69e	0.030497845
145	0x3c19e5db	0.009393181
146	0xbc5d4b25	-0.013506685
147	0xbdabb52f	-0.083841674
148	0x3d87994e	0.066210374
149	0xbe38a403	-0.18031316
150	0xbe20fb6b	-0.15720908
151	0x3e3bd522	0.18343022
152	0x3b4448af	0.002995055
153	0x3d9e8ba9	0.07741482
154	0xbe07636c	-0.1322152
155	0xbd4e6e38	-0.05039808
156	0x3d932b66	0.07186012
157	0xbd8f83a4	-0.0700753
158	0xbd126022	-0.03573621
159	0xbdab50e1	-0.08365036
160	0xbcf1843b	-0.029481998
161	0xbdcda963	-0.100420736
162	0xbd994183	-0.074831985
163	0x3d1eca00	0.03876686
164	0xbc109f36	-0.008827021
165	0xbe474562	-0.19460061
166	0x3c03bc9e	0.008040575
167	0x3d484dae	0.048902206
168	0xbd4543b7	-0.04816028
169	0x3c92646b	0.017870149
170	0x3cb257ab	0.021770319
171	0x3d8fdc90	0.07024491
172	0x3c71bc0e	0.014754308
173	0x3d91beb2	0.0711645
174	0x3d8e78c8	0.06956631
175	0x3ae7e756	0.0017692845
176	0xbd75992d	-0.059960533
177	0xbd848f2f	-0.064726226
178	0xbdf96bda	-0.12178774
179	0x3d63c6e4	0.0556096
180	0xbd631941	-0.055444006
181	0x3d84f908	0.064928114
182	0x3ddc721d	0.10763953
183	0xbdfc6737	-0.12324374
184	0xbc99c3f0	-0.018770188
185	0xbcf0050f	-0.029299287
186	0xbe0c8cd6	-0.137256
187	0xbd838bed	-0.06423173
188	0xbcc57540	-0.02410376
189	0x3cf3496a	0.029698092
190	0xbd3d0816	-0.04615029
191	0xbce3b84c	-0.02779784
192	0xbe146d49	-0.14494814
193	0xbc032b1e	-0.008005885
194	0xbe1374d5	-0.14400037
195	0xbc9165f2	-0.017748807
196	0x3decc30d	0.115606405
197	0xbd00dd93	-0.03146131
198	0x3c6a3a36	0.014296105
199	0x3d962b5a	0.073324874
200	0x3dd87c02	0.105705276
201	0x3da0742e	0.078346595
202	0x3d6bcb98	0.05756721
203	0x3d9b6866	0.07588272
204	0x3e11cb97	0.1423782
205	0xbc68c4bc	-0.014207061
206	0xbd6a7842	-0.057243593
207	0xbe304c99	-0.1721672
208	0x3deb9ccb	0.11504515
209	0xbd57b1de	-0.05265986
210	0x3e2e6437	0.17030416
211	0x3da9e6ef	0.08296
212	0xbdf4648c	-0.1193324
213	0xbd435a48	-0.04769352
214	0xbdbc22ba	-0.09186311
215	0xbd191c59	-0.03738055
216	0x3c055022	0.008136781
217	0xbd17139e	-0.036883943
218	0x3da15dd5	0.07879225
219	0xbd0f209e	-0.034943216
220	0xbe033b57	-0.12815605
221	0xbd9b2031	-0.075744994
222	0xbe3e0bc3	-0.18559174
223	0xbdc54fd7	-0.09634369
224	0x3dde9d86	0.10869889
225	0xbe0ee1be	-0.13953301
226	0xbe04558d	-0.1292326
227	0x3df6e41a	0.12055226
228	0xbccdae49	-0.02510752
229	0x3df35404	0.11881259
230	0x3cbc51bb	0.02298819
231	0x3de05ca5	0.109551705
232	0xbe0fca63	-0.14042048
233	0x3b434983	0.0029798455
234	0xbd911555	-0.07084147
235	0x3d7b371d	0.061331857
236	0xbdbd14e5	-0.09232501
237	0xbe2cc5e1	-0.1687236
238	0x3de2cbbd	0.11074016
239	0x3df33a78	0.118763864
240	0xbd0d709c	-0.03453122
241	0x3d9038f9	0.07042117
242	0xbe0cab56	-0.13737234
243	0x3da88432	0.08228339
244	0xbdbeec57	-0.09322422
245	0xbc64daa6	-0.0139681455
246	0x3e0ed8da	0.1394991
247	0x3d5d1746	0.053977273
248	0xbe00618b	-0.1253721
249	0x3b8f22d0	0.0043681636
250	0xbe32b79b	-0.17452852
251	0x3dd32186	0.103091285
252	0xbe971637	-0.29509136
253	0x3d116ff5	0.03550716
254	0x3d93f499	0.07224388
255	0xbcf75321	-0.030191006

nc1.MLP_msg_i2o.layers.4.bias f4 [64]
0	0xbf120606	-0.5704044
1	0xbdea2691	-0.11433137
2	0x3ea69f14	0.32543242
3	0x3c93e0b7	0.018051488
4	0xbdd2077f	-0.10255336
5	0x3f1f7e05	0.62301666
6	0xbe524111	-0.20532633
7	0xbecc4fad	-0.39904538
8	0xbf2439b2	-0.64150536
9	0xbdab4712	-0.08363165
10	0xbdf814d3	-0.12113347
11	0x3e77be5a	0.24193707
12	0xbd28d08c	-0.04121451
13	0x3e925e7d	0.28587714
14	0xbd0bcb9c	-0.034129724
15	0xbe196043	-0.14978127
16	0x3eb635fe	0.35588068
17	0x3d6e38c8	0.05815962
18	0x3e82962b	0.25505194
19	0xbdf8ec20	-0.12154412
20	0xbe58b616	-0.2116321
21	0xbe0678b9	-0.1313199
22	0xbe34277e	-0.1759319
23	0x3e87e48c	0.26541555
24	0x3e22b161	0.15887977
25	0x3d503ddc	0.050840244
26	0xbe1ffb68	-0.15623248
27	0xbc7ae8b2	-0.015314268
28	0x3d625570	0.05525726
29	0xbe01661b	-0.12636606
30	0x3dec96d7	0.11552208
31	0x3e236b60	0.15958929
32	0x3e7ca22b	0.24671237
33	0xbde2c9a0	-0.11073613
34	0xbe2c3075	-0.1681536
35	0xbef4fe11	-0.47850087
36	0xbe9de81a	-0.30841142
37	0xbb8c875c	-0.004288597
38	0x3e6bbd03	0.23021321
39	0xbdcd1513	-0.10013785
40	0xbe7aee9b	-0.24505083
41	0xbe8b7987	-0.27241156
42	0xbedecf77	-0.43517658
43	0xbc093c7d	-0.008376238
44	0x3e556498	0.20839155
45	0xbe7a4126	-0.24438915
46	0x3f3e6f3c	0.7438848
47	0x3db8f771	0.09031571
48	0xbeb51770	-0.35369444
49	0x3ec9dc39	0.3942583
50	0xbe93a316	-0.28835362
51	0xbe9cbf33	-0.30614623
52	0x3effd6c8	0.49968553
53	0xbd748699	-0.059698675
54	0x3d618add	0.05506407
55	0xbef2b59c	-0.47404182
56	0xbe15f17f	-0.14642905
57	0x3e217b06	0.15769586
58	0x3e574e55	0.21025975
59	0x3e125678	0.14290798
60	0xbeda6837	-0.42657635
61	0xbed8153c	-0.422037
62	0xbe79e414	-0.24403411
63	0x3eb6f8ab	0.35736594

nc1.MLP_msg_i2o.layers.6.weight f4 [65, 64]
0	0x3d3c14bf	0.045918223
1	0x3e8f8b57	0.28035995
2	0xbe0162f6	-0.12635407
3	0x3d597f69	0.053100023
4	0xbd245f67	-0.040130045
5	0xbbe7463c	-0.007057933
6	0x3cb9b371	0.022668572
7	0x3da901ee	0.08252321
8	0x3d443e90	0.047911227
9	0xbd3c3a8d	-0.045954276
10	0x3d9264b8	0.07148117
11	0xbe2ec9d5	-0.1706918
12	0x3d691c9f	0.05691206
13	0x3db1fb1a	0.08690472
14	0x3d8b7bc8	0.06810719
15	0xbde21fa2	-0.1104119
16	0xbde520d9	-0.11187906
17	0xbd9b0e70	-0.07571113
18	0xbd23c134	-0.039979175
19	0xbc466066	-0.012107944
20	0xbb452567	-0.0030082108
21	0xbe32622d	-0.17420264
22	0x3d84d016	0.06485002
23	0xbe295c38	-0.16539085
24	0x3ca9712a	0.020683844
25	0xbdd1e1df	-0.102481596
26	0xbe1ac801	-0.15115358
27	0x3caef87d	0.021358723
28	0xbe25785d	-0.16159196
29	0xbcf1e49e	-0.029527958
30	0xbd8be4bc	-0.06830737
31	0x3c09d35c	0.008412208
32	0xbd61ac25	-0.05509581
33	0xbdccd10e	-0.100008115
34	0xb9ab1662	-0.00032632338
35	0x3e36fa32	0.1786888
36	0xbdbfc21d	-0.09363196
37	0xbd45e3f9	-0.048313115
38	0xbe182147	-0.14856444
39	0xbdd639cd	-0.104602434
40	0x3e2c15f6	0.16805252
41	0xbd4eeef8	-0.050520867
42	0x3d914f93	0.07095256
43	0x3d6aa778	0.057288617
44	0xbe1fa850	-0.1559155
45	0x3d98baad	0.074574806
46	0xbcb8042c	-0.022462927
47	0x3e0fa794	0.1402877
48	0xbdca084d	-0.098648645
49	0xbdeff1bb	-0.11716028
50	0x3e275966	0.16342697
51	0x3e1d4118	0.15356863
52	0xbe04e7c5	-0.12979038
53	0xbdce29da	-0.10066576
54	0xbd1aa8a6	-0.037758492
55	0xbddd8644	-0.10816625
56	0x3d559277	0.052141633
57	0x3dad3b66	0.08458595
58	0x3c75133a	0.014958197
59	0xbcac6e0f	-0.021048574
60	0x3d9be00a	0.076110914
61	0x3e10fe82	0.14159587
62	0xbdd9c9c6	-0.10634188
63	0xbdef965f	-0.11698603
64	0x3c8a3259	0.01686971
65	0x3d31e835	0.04343434
66	0x3e0f966c	0.14022225
67	0xbca768ef	-0.020435778
68	0x3d9c9799	0.076461025
69	0xbc1ffc8f	-0.0097648045
70	0xbd5d954c	-0.05409746
71	0x3d355d3b	0.044278365
72	0x3ccd959d	0.025095755
73	0xbd6338ad	-0.055473972
74	0xbd2c98c7	-0.042137887
75	0xbdd4c211	-0.10388578
76	0x3e1b1577	0.15144907
77	0xbe0766f9	-0.13222875
78	0x3c9edea7	0.019393278
79	0xbd8423fb	-0.06452175
80	0xbdd59d97	-0.104304485
81	0x3d08f8f9	0.033440564
82	0x3d2118ab	0.039330166
83	0x3d7bc818	0.06147012
84	0x3d266ef1	0.040633146
85	0x3dd90889	0.10597331
86	0xbc937054	-0.017997898
87	0xbdcf177b	-0.101119004
88	0x3b579871	0.0032897259
89	0x3cc4bd0d	0.024015928
90	0xbe01797e	-0.12644002
91	0xbe28c6ad	-0.16482039
92	0x3c5a010f	0.013305916
93	0xbdf51b48	-0.11968094
94	0xbdab802b	-0.083740555
95	0x3cc5f396	0.024164002
96	0xbe00df53	-0.12585191
97	0x3dc12c5e	0.094322905
98	0x3d855a2e	0.06511341
99	0xbc9ee088	-0.019394174
100	0xbcc3acee	-0.02388617
101	0xbd6ca92f	-0.057778534
102	0xbe059ae9	-0.13047375
103	0xbdc4bc0e	-0.09606181
104	0xbdba2b0c	-0.09090242
105	0xbd22acfb	-0.03971575
106	0xbd134381	-0.03595305
107	0xbe2ad11a	-0.16681328
108	0x3df49110	0.11941731
109	0xbd2a3509	-0.041554485
110	0xbe0278f2	-0.1274145
111	0xbc0e27fa	-0.008676523
112	0x3d793b99	0.060847852
113	0x3de03fa8	0.109496415
114	0x3e21d801	0.15805055
115	0x3e090c0f	0.13383506
116	0xbd47583b	-0.048668128
117	0x3dba1b27	0.0908721
118	0xbc3b2aa4	-0.011423741
119	0x3e31e8e1	0.17373993
120	0x3de69bc9	0.112601824
121	0xbd93c85b	-0.07215949
122	0xbd47d62f	-0.048788246
123	0x3d8e8fa8	0.06960994
124	0xbb50e0c6	-0.0031872257
125	0xbe0f0eba	-0.13970461
126	0x3c072ad6	0.008249959
127	0xbc6267a2	-0.013818653
128	0xbe018ae7	-0.12650643
129	0x3c5afbf0	0.013365731
130	0x3d5c8ddf	0.053846236
131	0xbdb75a7c	-0.089528054
132	0xbdb1217c	-0.08648965
133	0xbde49a32	-0.11162223
134	0x3de2fb77	0.11083119
135	0x3da0abd9	0.07845277
136	0x3ce4f4b9	0.027948724
137	0x3cc1d6cd	0.023661995
138	0xbda0df26	-0.07855062
139	0xbd3ca6fd	-0.04605769
140	0xbdd3c41c	-0.10340139
141	0xbb6402bf	-0.0034791676
142	0x3d643e54	0.055723503
143	0xbe1cc62f	-0.15309976
144	0xbd8db7ad	-0.06919799
145	0xbdc6f062	-0.09713818
146	0x3d1bce2c	0.038038418
147	0x3e1d1b97	0.15342556
148	0xbde838ea	-0.113389805
149	0x3da34b3d	0.07973335
150	0xbd05572b	-0.032553833
151	0x3dc15e99	0.09441871
152	0xbd60f289	-0.0549188
153	0xbd22bf32	-0.03973312
154	0x3dc4d9b1	0.09611834
155	0x3ca7be77	0.020476563
156	0xbda73b69	-0.081656285
157	0xbd9439df	-0.072376005
158	0x3c941845	0.018077979
159	0xbdb772b5	-0.089574255
160	0xbd4127ab	-0.04715697
161	0x3de12329	0.109930344
162	0xbd0e4c80	-0.034740925
163	0xbdc4cecf	-0.09609758
164	0x3d0340b6	0.032044135
165	0x3dfb9caf	0.122857444
166	0xbdd79a80	-0.105275154
167	0xbd34fbf6	-0.0441856
168	0xbe155b24	-0.14585549
169	0xbd877bd5	-0.06615416
170	0x3d4586d8	0.0482243
171	0x3e34ac4b	0.1764385
172	0xbcd80dcd	-0.026373768
173	0xbd3394cd	-0.04384308
174	0xbdaaec63	-0.083458684
175	0xbdaec5b2	-0.08533801
176	0x3e406362	0.18787912
177	0xbd947076	-0.07248013
178	0xbb5cf181	-0.0033713283
179	0xbcadc130	-0.021210283
180	0x3d9eeeda	0.07760401
181	0x3dcfebe9	0.10152418
182	0xbd9d1292	-0.07669558
183	0x3e1d2bf9	0.15348805
184	0xbb5b1fff	-0.003343582
185	0x3d08f3a6	0.033435486
186	0xbd71151d	-0.058858026
187	0x3da28492	0.07935442
188	0x3c0d6868	0.008630849
189	0xbd0fef11	-0.0351401
190	0xbcee8dd1	-0.029120358
191	0x3de51cdd	0.11187146
192	0x3a74e035	0.0009341271
193	0xbd336730	-0.04379958
194	0xbce81201	-0.028328897
195	0x3d221953	0.039574932
196	0xbdb70cc7	-0.08937984
197	0x3ded7dae	0.11596237
198	0x3b155313	0.0022785112
199	0x3cfe90ac	0.031074844
200	0xbde15233	-0.110020064
201	0xbdd37eb3	-0.103269
202	0x3d39c778	0.045356244
203	0xbd6f9c53	-0.05849869
204	0x3d909f30	0.070616126
205	0xbd768ca4	-0.06019272
206	0xbe060f8e	-0.13091871
207	0x3dd9d2b5	0.10635892
208	0x3dac8ce7	0.084253125
209	0x3a92ee52	0.0011209941
210	0xbda8104f	-0.082062356
211	0xbddd2dab	-0.10799726
212	0xbcbaff9b	-0.02282696
213	0x3d063b9c	0.03277169
214	0x3e0eed8d	0.13957806
215	0xbe19b301	-0.15009691
216	0x3d717976	0.058953725
217	0x3db390e1	0.08767868
218	0xbde2eb69	-0.11080057
219	0xbdd5291d	-0.10408232
220	0x3d831344	0.06400159
221	0x3d51a895	0.051186163
222	0xbac441de	-0.0014973243
223	0x3d4e1d3a	0.05032084
224	0xbba1fb3a	-0.0049432786
225	0x3d3f76a1	0.046743993
226	0x3dd44fc2	0.10366775
227	0x3dc6b88a	0.09703167
228	0x3e0eeb34	0.1395691
229	0xbdcf75b1	-0.1012987
230	0x3df5153f	0.11966943
231	0x3ccdbf8a	0.025115747
232	0xbd0ad4b8	-0.03389427
233	0x3de2dcd5	0.110772766
234	0xbd8f991d	-0.07011626
235	0x3d026296	0.0318323
236	0x3dc8b777	0.09800618
237	0x3df662a8	0.12030536
238	0x3a5fbebf	0.0008535198
239	0x3d1463df	0.036228057
240	0x3d1189be	0.03553175
241	0x3dcb8617	0.09937685
242	0xbd4b90a8	-0.0496985
243	0xbd2fc883	-0.042915832
244	0xbd68a2ed	-0.056796003
245	0xbe15ee8d	-0.14641781
246	0xbdd42b34	-0.10359803
247	0x3cacdbc8	0.021100894
248	0x3c15f2a5	0.009152089
249	0xbd58dc2a	-0.05294434
250	0xbc74e140	-0.014946282
251	0xbdf93329	-0.12167961
252	0x3d106727	0.035254624
253	0xbcfa64bc	-0.030565612
254	0x3dbc1236	0.09183161
255	0xbdc36969	-0.0954159

nc1.MLP_msg_i2o.layers.6.bias f4 [65]
0	0xbe87d312	-0.2652822
1	0xbe5b7557	-0.2143148
2	0xbda4d387	-0.08048158
3	0x3e7596d8	0.23983324
4	0xbd46058b	-0.04834513
5	0xbe31736c	-0.17329186
6	0xbdded624	-0.10880688
7	0xbda64033	-0.08117714
8	0x3db29c14	0.08721176
9	0xbe00d4e7	-0.12581216
10	0xbe6baa2c	-0.23014134
11	0xbc8c38c8	-0.01711692
12	0x3d07274a	0.032996453
13	0xbee06fc0	-0.43835258
14	0x3e996542	0.29960066
15	0xbd0c2c11	-0.034221712
16	0xbd641bfc	-0.05569075
17	0xbf04dd38	-0.51900053
18	0x3e7389dc	0.23783058
19	0x3ea940eb	0.3305734
20	0x3ea0bfa3	0.31396207
21	0xbcf35379	-0.029702889
22	0x3da14d9c	0.07876131
23	0x3f109d82	0.5649034
24	0x3e39a2cb	0.18128507
25	0x3e88ce2d	0.267198
26	0xbe972f84	-0.2952844
27	0xbe925d35	-0.28586736
28	0xbea8895f	-0.32917306
29	0x3e70938c	0.23493785
30	0xbd608d27	-0.054822113
31	0xbe28dfe9	-0.16491665
32	0x3dd345cf	0.10316049
33	0x3f167a70	0.58780575
34	0xbd82c3b3	-0.06384983
35	0x3f161a9d	0.5863436
36	0xbcb0e30a	-0.021592636
37	0x3eacc265	0.3374206
38	0x3f1b25cf	0.60604566
39	0x3e0bfc65	0.136705
40	0xbef44060	-0.47705364
41	0x3ce9a75c	0.028522186
42	0x3f44fc31	0.76947314
43	0x3ddc14f0	0.10746181
44	0xbe7aa82a	-0.24478212
45	0x3ed44bf1	0.4146419
46	0x3f2cdb4c	0.6752212
47	0x3e67ad8d	0.22624798
48	0x3d984d80	0.07436657
49	0x3e4c58e6	0.19955787
50	0xbedf888f	-0.43658873
51	0xbe95625d	-0.29176608
52	0x3ed5569e	0.41667646
53	0x3eef97fc	0.46795642
54	0xbd6fa321	-0.05850518
55	0x3e9ef060	0.31042767
56	0x3ed5644c	0.41678083
57	0x3f3baffa	0.73315394
58	0x3eceb926	0.40375632
59	0xbed3e7ab	-0.41387686
60	0x3f09a747	0.5377087
61	0xbecdc904	-0.40192425
62	0xbe34da40	-0.17661381
63	0x3e50aa01	0.20377351
64	0xbec34ab3	-0.38142928

nc1.MLP_reduce_o.layers.0.weight f4 [64, 74]
0	0xbde33829	-0.11094696
1	0x3f118b57	0.5685324
2	0xbbcb645d	-0.0062070326
3	0xbd9a68d3	-0.07539525
4	0xbd8826c3	-0.06648018
5	0x3d004a18	0.03132066
6	0xbd74eeb6	-0.059797965
7	0x3d9281f7	0.07153695
8	0xbd81e48f	-0.06342422
9	0x3db9bb4a	0.09068926
10	0x3c277b7f	0.010222315
11	0xbd488987	-0.04895928
12	0xbd844176	-0.06457798
13	0x3dec9b50	0.11553061
14	0xbd86e736	-0.06587069
15	0x39d05760	0.0003973795
16	0xbd8a2179	-0.06744666
17	0x3bb4d262	0.0055182436
18	0xbc907ec6	-0.017638575
19	0x3e243ec8	0.16039574
20	0x3d51cec7	0.05122259
21	0x3d3ef939	0.046624396
22	0x3dd0e8a2	0.10200621
23	0x3c8e779d	0.01739102
24	0x3dd03d6f	0.101679675
25	0x3d30154f	0.04298907
26	0xbe459311	-0.19294383
27	0xbe01286f	-0.1261308
28	0xbcd68d06	-0.026190292
29	0xbbca17d2	-0.0061673904
30	0xbdfbfbb3	-0.12303867
31	0x3deca6d4	0.115552574
32	0xbd50cf58	-0.05097899
33	0xbc436a2c	-0.011927169
34	0xbdb70043	-0.08935597
35	0x3cbe903c	0.023262136
36	0xbd78c2f0	-0.060732782
37	0x3dba7f36	0.09106295
38	0x3da7df28	0.081968606
39	0xbdc1baf5	-0.09459487
40	0x3d1176ad	0.03551357
41	0x3d6f319d	0.058396924
42	0x3d60314b	0.05473451
43	0x3d028b94	0.031871393
44	0xbd556457	-0.052097645
45	0x3d3db121	0.0463115
46	0x3d3692a4	0.04457344
47	0x3dba37cf	0.09092676
48	0xbd8efc4d	-0.06981716
49	0x3d184e1b	0.037183862
50	0x3dadf6ff	0.084943764
51	0x3e79af9c	0.24383396
52	0xbd391e80	-0.045195103
53	0x3dadf991	0.08494867
54	0x3db234ca	0.08701475
55	0x3e0b1168	0.13580859
56	0x3ce1bc0c	0.027555488
57	0x3df9a327	0.12189322
58	0x3d2b2c6c	0.04179041
59	0xbdb0ef5b	-0.086394034
60	0xbd15c80a	-0.036567725
61	0xbd3f0b9d	-0.046641935
62	0x3ccbcf25	0.024879048
63	0x3da36594	0.07978359
64	0x3da9a92b	0.08284219
65	0xbd69b896	-0.0570608
66	0x3dd3e7b1	0.10346926
67	0x3e0fbca9	0.14036812
68	0xbd1b9f29	-0.037993584
69	0x3d8f0906	0.06984143
70	0xbd3b4c88	-0.045727283
71	0xbdf1bbc8	-0.118033946
72	0xbe24650e	-0.16054174
73	0xbdd9b165	-0.106295384
74	0x3f525a35	0.82168895
75	0x3df16bb0	0.11788118
76	0xbd2a7214	-0.0416127
77	0xbd2a7d01	-0.04162312
78	0xbc2b5154	-0.010456402
79	0xbce3aade	-0.027791437
80	0xbcc56a2b	-0.024098476
81	0x3db81036	0.08987467
82	0xbcc6992b	-0.024242958
83	0xbc2efd31	-0.010680483
84	0xbd1d15b3	-0.038350772
85	0xbc32d961	-0.010916085
86	0xbdcb68a0	-0.09932065
87	0x3daac0de	0.08337568
88	0x3d3cf598	0.046132654
89	0x3dda2b4f	0.10652792
90	0x3dc93ede	0.09826444
91	0xbd9af8db	-0.07566997
92	0x3caa60de	0.020798143
93	0x3cc94ac7	0.02457179
94	0x3d8705a4	0.06592873
95	0x3d26b99f	0.040704366
96	0xbccee070	-0.025253505
97	0x3d19eb79	0.03757808
98	0xbda8c517	-0.08240717
99	0x3df47db9	0.11938042
100	0x3d1ed826	0.038780354
101	0x3dd462fe	0.10370444
102	0xbce44daf	-0.027869074
103	0xbdb5fe46	-0.088863894
104	0xbdf18367	-0.11792641
105	0xbd5bd5fd	-0.053670872
106	0xbd690424	-0.056888714
107	0xbd344947	-0.044015195
108	0xbdb53539	-0.08848042
109	0x3d028a00	0.03186989
110	0x3cdf20c2	0.0272373
111	0xbd474f03	-0.048659336
112	0x3d5b6d9a	0.05357132
113	0xbd9f0973	-0.07765474
114	0x3d36ddb3	0.044645023
115	0x3d99c4fc	0.07508275
116	0xbe08f157	-0.13373314
117	0xbcebeb3d	-0.028798694
118	0xbd85e07c	-0.065369576
119	0xbcf15438	-0.029459104
120	0xbe1cb5d0	-0.15303731
121	0xbe20b62f	-0.15694498
122	0x3d10266f	0.035192903
123	0x3c2f3b25	0.0106952535
124	0xbc397a70	-0.011320695
125	0xbca44769	-0.020053582
126	0xbdc8cb7a	-0.09804435
127	0xbdfc520f	-0.12320339
128	0xbccd2a30	-0.02504453
129	0xbc8d9a53	-0.017285502
130	0xbe061e00	-0.13097382
131	0x3c4886c5	0.012239163
132	0xbe0f6935	-0.14004977
133	0xbe813db5	-0.2524239
134	0x3d006a92	0.031351633
135	0xbdeadb79	-0.11467642
136	0xbd38760e	-0.04503446
137	0xbd3709e9	-0.044687185
138	0x3dcc3a30	0.09972036
139	0xbdd1a25a	-0.10236044
140	0x3db42888	0.08796793
141	0xbd9183a2	-0.07105185
142	0xbdf7ed9c	-0.12105867
143	0x3d500c87	0.050793197
144	0xbdc7f154	-0.097628266
145	0x3c98f7fd	0.018672938
146	0x3dc07beb	0.093986355
147	0xbdd62362	-0.104559675
148	0x3fc81c7b	1.5633692
149	0x3ea78565	0.3271896
150	0x3d822882	0.063553825
151	0xbd24b8f4	-0.040215448
152	0xbd8fcb6b	-0.07021221
153	0xbda92c8b	-0.08260449
154	0x3dc6204e	0.096741304
155	0x3ccb7a73	0.024838662
156	0x3d2f4d54	0.042798355
157	0x3daf855c	0.08570358
158	0x3dd7f208	0.10544211
159	0xbe095ccc	-0.13414305
160	0xbbe258ae	-0.006907544
161	0x3d3d18d4	0.046166256
162	0x3d942018	0.07232684
163	0x3e4a186e	0.19735882
164	0x3d53125c	0.05153118
165	0x3d900b64	0.070334226
166	0xbd8ccbf8	-0.068748415
167	0x3d369de6	0.044584177
168	0xbe0da6e8	-0.13833201
169	0x3bbe7a19	0.005812895
170	0x3c79d1fc	0.015247818
171	0x3e5e0406	0.21681222
172	0xbdb45e93	-0.08807101
173	0x3ce889e9	0.028386073
174	0x3d80aff7	0.06283563
175	0xbd9994b1	-0.07499064
176	0x3e0b0c2e	0.13578865
177	0x3d7912a2	0.060808785
178	0xbd782423	-0.060581338
179	0x3d6d4e55	0.05793603
180	0x3d5167a0	0.051124215
181	0x3e28bade	0.16477534
182	0x3d5085cd	0.050908852
183	0x3cb3496a	0.021885592
184	0xbe10d1df	-0.1414256
185	0xbc619b6a	-0.013769964
186	0xbd964101	-0.07336617
187	0xbd0e9e30	-0.034818828
188	0xbbd4de65	-0.006496238
189	0x3c3951f5	0.011311044
190	0x3e6d27f6	0.23159775
191	0x3e895b80	0.2682762
192	0x3d0da86f	0.03458446
193	0x3e8c9685	0.27458587
194	0x3e2bb2e2	0.16767457
195	0x3e00d7e5	0.12582357
196	0x3d86d494	0.06583515
197	0x3dfacacd	0.122457124
198	0xbc67b9a4	-0.014143381
199	0x3dc4ee1e	0.0961573
200	0x3df46b77	0.1193456
201	0x3e2fecd7	0.17180191
202	0xbdc0ff5d	-0.09423707
203	0xbc5c9de6	-0.01346538
204	0x3d379d00	0.04482746
205	0xbb807509	-0.0039202017
206	0x3e7fbaae	0.24973556
207	0xbd37fb4d	-0.044917393
208	0x3e77bc2e	0.24192879
209	0x3c9f0047	0.019409312
210	0x3e37f111	0.17963053
211	0xbe16fa3e	-0.14743897
212	0x3e2369b9	0.15958299
213	0x3dd1f6ac	0.10252127
214	0xbb4b4ab6	-0.0031019873
215	0x3e7ed441	0.24885656
216	0xbd852623	-0.065014146
217	0x3e072940	0.1319933
218	0x3e1bc92a	0.15213457
219	0xbe9fe1b5	-0.31226888
220	0xbda4697d	-0.08027933
221	0xbd495469	-0.049152765
222	0x401189c2	2.274033
223	0x3e39e265	0.18152769
224	0xbcda61b9	-0.026657926
225	0xbdc4322d	-0.09579883
226	0xbdc95c24	-0.098320276
227	0x3dd7c526	0.1053565
228	0x3d66fadf	0.056391593
229	0x3c70d704	0.014699701
230	0x3d34374d	0.04399805
231	0x3dbb3093	0.09140124
232	0xbd73939a	-0.059466936
233	0xbccdeda6	-0.025137734
234	0x3d1fc39e	0.039004914
235	0xbdee3ee0	-0.11633086
236	0x3d197553	0.037465405
237	0x3d3be1d7	0.045869675
238	0xbd908548	-0.070566714
239	0x3dd4372b	0.10362085
240	0xbe1e38a6	-0.15451297
241	0xbd2a08a0	-0.04151213
242	0xbdf7b5f8	-0.12095255
243	0xbe0819ee	-0.13291141
244	0x3d3f233e	0.04666447
245	0xbd3daf59	-0.046309803
246	0xbda1d609	-0.07902152
247	0x3cd7764f	0.026301531
248	0xbd2adbd5	-0.041713554
249	0x3d630a3d	0.055429686
250	0x3d401192	0.046891756
251	0x3d4eaf8b	0.05046038
252	0x3d7eac0a	0.062175788
253	0xbd9ec847	-0.077530436
254	0x3dec0c11	0.11525739
255	0x3d0369f0	0.03208345

nc1.MLP_reduce_o.layers.0.bias f4 [64]
0	0x3f331233	0.69949645
1	0x3dab457d	0.08362863
2	0x3ebc9282	0.36830527
3	0x3ce3ba9d	0.027798945
4	0xbe098720	-0.13430452
5	0x3f4c05ab	0.7969615
6	0x3ef5a292	0.47975594
7	0x3f2472c3	0.6423761
8	0xbf11af4d	-0.5690811
9	0xbe877be4	-0.2646171
10	0x3f4c9169	0.7990938
11	0x3e291dbd	0.1651525
12	0xbe6599f5	-0.22422011
13	0xbe0b791f	-0.13620423
14	0x3e2dfd84	0.1699124
15	0x3c2e5877	0.010641209
16	0x3ee24bd7	0.44198486
17	0xbf14bf79	-0.58104664
18	0xbd46cc64	-0.048534766
19	0x3db19751	0.086714394
20	0xbd88d2a0	-0.066807985
21	0xbda0a3c9	-0.078437395
22	0xbdf7f3e2	-0.12107064
23	0xbe40244d	-0.18763848
24	0xbdadeaa2	-0.08492018
25	0xbee83fc9	-0.45361164
26	0x3f1d9c84	0.6156695
27	0xbdb0a960	-0.08626056
28	0xbd1d8732	-0.03845901
29	0x3cdd483e	0.027011987
30	0x3e320ace	0.17386934
31	0x3e961837	0.2931535
32	0x39cb788c	0.00038808992
33	0x3ce50b21	0.027959408
34	0xbf0646ad	-0.5245159
35	0x3ddfde0b	0.10931023
36	0x3dd713f6	0.10501854
37	0xbe061039	-0.13092126
38	0xbe68b118	-0.22723806
39	0x3f21a318	0.63139486
40	0x3db5b992	0.08873285
41	0x3f421df7	0.7582697
42	0xbecd6665	-0.40117183
43	0x3d8d9f46	0.069151446
44	0x3d294814	0.041328505
45	0x3daf134c	0.085486025
46	0x3ea4fdd2	0.322249
47	0xbda0f326	-0.07858877
48	0x3f013b57	0.5048117
49	0x3e39b838	0.1813668
50	0x3e98ba07	0.29829428
51	0xbdb3aa7b	-0.08772751
52	0x3e955dee	0.29173225
53	0xbdb3485c	-0.08754036
54	0x3edb783e	0.42865175
55	0xbc316a46	-0.01082856
56	0x3e9e4b3a	0.30916768
57	0x3f3aa134	0.72902226
58	0x3dc9fda2	0.0986283
59	0x3bc3a4a4	0.0059705544
60	0x3d1907db	0.037361007
61	0xbccc9e5e	-0.02497786
62	0x3d8587d1	0.065200455
63	0xbc62a9b1	-0.013834403

nc1.MLP_reduce_o.layers.2.weight f4 [64, 64]
0	0xbddbebe9	-0.10738356
1	0xbddfd861	-0.10929943
2	0x3df9a108	0.121889174
3	0xbd44d336	-0.04805299
4	0x3e0fa2fa	0.14027014
5	0x3c15a817	0.009134314
6	0xbde50267	-0.11182099
7	0x3ca68c7f	0.020330666
8	0x3deb0830	0.11476171
9	0x3dbea579	0.09308905
10	0xbe1186f0	-0.14211631
11	0xbd29f799	-0.041495893
12	0xbdfa081a	-0.122085765
13	0x3e137bdb	0.14402716
14	0xbe234ffd	-0.15948482
15	0xbb55a4a5	-0.0032599356
16	0xbd479450	-0.048725426
17	0xbe32e5d9	-0.17470492
18	0x3c3753fd	0.011189458
19	0x3d2ca9ff	0.04215431
20	0x3d4e93e7	0.05043402
21	0xbda4cda2	-0.08047034
22	0xbdb26a50	-0.08711684
23	0xbdcc2950	-0.09968817
24	0xbe0e98b6	-0.13925442
25	0xbc8e8471	-0.017397137
26	0x3da25a1f	0.079273455
27	0x3d821328	0.0635131
28	0x3b97dc37	0.004634406
29	0x3dc7854a	0.0974222
30	0x3d416194	0.0472122
31	0x3e1166a2	0.14199308
32	0x3d5f5523	0.054524552
33	0xbd1893c8	-0.03725031
34	0x3d8cb09e	0.068696246
35	0x3d9c1fe0	0.07623267
36	0xbd78e7fd	-0.060768116
37	0x3dd01fc3	0.10162308
38	0x3ddf2677	0.108960085
39	0x3db673ed	0.0890883
40	0xbdcf63a4	-0.10126427
41	0x3db991ba	0.09060998
42	0x3cd5bf99	0.026092337
43	0x3e2299ed	0.1587903
44	0xbd90c7a6	-0.0706933
45	0xbdc80296	-0.09766118
46	0x3db8ac4f	0.0901724
47	0xbdf44419	-0.11927051
48	0x3d2d4d61	0.042310122
49	0xbd5b22d7	-0.053500023
50	0x3e2e70fd	0.17035289
51	0xbd360285	-0.044435997
52	0xbdb84185	-0.08996872
53	0x3dcdcf9e	0.100493655
54	0xbcb3b953	-0.021938955
55	0x3b2094fe	0.0024502869
56	0x3db9ae8d	0.09066496
57	0x3db4c4e1	0.08826614
58	0x3d042d30	0.032269657
59	0xbdcaf75d	-0.09910462
60	0x3dc8eff8	0.098113954
61	0xbd980966	-0.074236676
62	0xbc63d855	-0.013906558
63	0xbdec73c2	-0.115455166
64	0xbd90cc8a	-0.07070263
65	0x3d7ad91f	0.06124222
66	0xbe0d340e	-0.13789389
67	0xbc3608b0	-0.01111047
68	0xbd89ebdc	-0.0673444
69	0xbcec8d2a	-0.028875906
70	0xbd2b715a	-0.041856147
71	0x3c9b148e	0.0189307
72	0xbb39b3d2	-0.002833594
73	0xbe146c25	-0.14494379
74	0xbdeafba5	-0.11473779
75	0xbd81a77b	-0.063307725
76	0x3d18edff	0.037336346
77	0x3e350be1	0.17680313
78	0x3df4e655	0.11957995
79	0xbe1c154e	-0.15242502
80	0xbc0ee266	-0.00872097
81	0x3c943643	0.01809228
82	0x3c156edc	0.009120669
83	0x3d9a6b6b	0.075400196
84	0xbca93173	-0.020653462
85	0xbd14c8a0	-0.036324143
86	0xbdf3a03c	-0.11895797
87	0xbc2deb4a	-0.010615179
88	0x3da3ae65	0.079922475
89	0xbc8b642c	-0.01701554
90	0xbde862cb	-0.11346968
91	0x3e2a392f	0.16623376
92	0xbd200f36	-0.039077006
93	0x3ae6eecb	0.0017618773
94	0x3d580333	0.052737426
95	0xbd9bccea	-0.07607444
96	0x3ccef3fe	0.025262829
97	0x3c06a8b8	0.008218937
98	0xbb277c94	-0.0025556432
99	0xbe0c9ece	-0.13732454
100	0xbe464731	-0.19363095
101	0x3e036f30	0.12835383
102	0x3d932b10	0.07185948
103	0xbe48d8ab	-0.19613902
104	0x3c99fef3	0.018798327
105	0x3d9cc47b	0.07654663
106	0xbdc32029	-0.095276184
107	0x3d5a443e	0.053287737
108	0xbe082959	-0.13297023
109	0xbe3e6dfd	-0.18596645
110	0xbe068c11	-0.13139369
111	0xbd40142d	-0.04689424
112	0xbd15a768	-0.036536604
113	0x3d24cd6f	0.04023498
114	0xbd2a4c38	-0.041576594
115	0x3c8045af	0.015658228
116	0xbe04844a	-0.1294109
117	0x3d7fa0be	0.062409155
118	0x3d81d1e1	0.06338859
119	0xbe51a433	-0.20472793
120	0xbcee6a60	-0.029103458
121	0xbd27a47b	-0.040928345
122	0x3db92436	0.0904011
123	0x3d957474	0.07297602
124	0x3de11194	0.10989681
125	0xbcac757d	-0.021052117
126	0xbe197275	-0.14985068
127	0x3cebe45b	0.028795412
128	0x3daed13b	0.08536001
129	0x3d96a2bd	0.073552586
130	0xbdc165e7	-0.094432645
131	0xbda41fd2	-0.08013882
132	0x3d407ffb	0.04699705
133	0x3e051c84	0.12999159
134	0xbd739dbb	-0.059476595
135	0xba7c161c	-0.00096163317
136	0xbbb5ac97	-0.005544256
137	0x3c75a8f3	0.014993894
138	0x3d93bfb9	0.072143026
139	0x3e09a051	0.13440062
140	0x3d96233b	0.073309384
141	0xbdec1099	-0.11526603
142	0x3de6119c	0.112338275
143	0x3d5ce5bf	0.05393004
144	0xbd8c93cc	-0.068641275
145	0x3d2c8694	0.04212053
146	0x3cd39c38	0.025831327
147	0xbe4b8d84	-0.19878203
148	0xbd61ad77	-0.05509707
149	0x3d0227f9	0.031776402
150	0x3d8cc058	0.06872624
151	0xbdd5254f	-0.10407507
152	0x3dd6edf5	0.104946055
153	0x3dbda114	0.09259239
154	0x3e24a13d	0.16077133
155	0x3dc80e40	0.09768343
156	0x3c6466c2	0.013940515
157	0xbd3649cd	-0.044503976
158	0xbe14e954	-0.14542133
159	0x3e1610ca	0.14654842
160	0xbde20dc3	-0.11037781
161	0xbe4873c2	-0.19575408
162	0x3d7393d1	0.05946714
163	0x3e27dfca	0.16393963
164	0x3d3386fb	0.0438299
165	0x3d890c95	0.06691853
166	0xbcb5e879	-0.022205578
167	0xbdd7405e	-0.10510324
168	0xbd124381	-0.035708908
169	0x3de13173	0.1099576
170	0x3da25ad9	0.07927484
171	0x3e0262d1	0.12733008
172	0x398d959a	0.00027005078
173	0xbde18fec	-0.11013779
174	0x3af0ec4c	0.0018380969
175	0xbda2cc84	-0.079491645
176	0x3dde09d2	0.10841717
177	0xbd80a44a	-0.06281336
178	0x3d5decb0	0.0541808
179	0x3d9e713f	0.07736444
180	0xbcfa9a48	-0.030591145
181	0x3cc23161	0.023705186
182	0xbda0759c	-0.07834932
183	0xbdff66ee	-0.12470804
184	0xbd99f654	-0.075176865
185	0x3c0b3dd5	0.008498629
186	0x3c396286	0.011314994
187	0x3d36f052	0.04466278
188	0xbdfb3134	-0.12265244
189	0xbc8ce915	-0.017200986
190	0x3aa124da	0.0012294308
191	0xbd7a584d	-0.061119366
192	0x3d597702	0.05309201
193	0xbdcf35d7	-0.10117691
194	0xbd857cba	-0.0651793
195	0xbd225c03	-0.03963853
196	0xbcd5a9e0	-0.02608198
197	0x3eb11096	0.34582967
198	0xbe05e3d7	-0.13075195
199	0xbcd7eeb3	-0.026358938
200	0xbd380797	-0.044929113
201	0xbcd59e16	-0.026076358
202	0x3d169e9b	0.03677235
203	0xbdd4d762	-0.103926435
204	0xbc8b3061	-0.016990842
205	0x3de870c7	0.113496356
206	0x3e8475e4	0.25871193
207	0x3d99a697	0.075024776
208	0x3d7b8e50	0.061415017
209	0xbde47e81	-0.11156941
210	0x3d3f997a	0.046777226
211	0xbdcc29bc	-0.09968898
212	0x3cc3bf00	0.023894787
213	0xbde4dda6	-0.111750886
214	0x3cd38e56	0.025824707
215	0x3d8bbf7a	0.06823631
216	0xbb5b7244	-0.0033484856
217	0xbcec986d	-0.028881276
218	0x3e199da6	0.15001544
219	0x3cb2c9b5	0.021824697
220	0xbe3868d4	-0.18008739
221	0x3e306ff7	0.17230211
222	0x3ad4d70f	0.0016238409
223	0x3d6220e7	0.05520716
224	0xbdbf18a6	-0.09330873
225	0xbd600a5a	-0.054697372
226	0x3a8214a8	0.0009924369
227	0x3d3491d1	0.044084374
228	0x3e08bf52	0.13354233
229	0x3d7d92bb	0.06190751
230	0x3c4e0ff3	0.012577045
231	0x3daa8507	0.08326154
232	0x3d1b0c55	0.037853558
233	0xbbb86e39	-0.005628374
234	0x3d98c64d	0.07459698
235	0x3d5fd456	0.05464586
236	0x3cbed62c	0.023295484
237	0x3de07e8e	0.109616384
238	0x3e3acc91	0.18242098
239	0xbc8a3ab6	-0.016873699
240	0xbcddb150	-0.027062088
241	0x3cb6a8ea	0.022297341
242	0x3e55c687	0.20876513
243	0x3d43111b	0.047623735
244	0x3c517579	0.012784355
245	0x3c49c7d7	0.012315712
246	0x3de2e7bb	0.11079355
247	0x3dba7393	0.09104075
248	0x3db088e2	0.08619858
249	0x3df9c941	0.12196589
250	0x3e87f69e	0.2655534
251	0xbd1d323c	-0.038377985
252	0x3d0eb365	0.034839053
253	0x3c48b47c	0.012250062
254	0xbd2bac65	-0.041912455
255	0x3df9be72	0.12194528
